…
model.add(Dense(units = 128,kernel_initializer = "random_uniform",activation = "relu"))
model.add(Dense(units = 128,kernel_initializer = "random_uniform",activation = "relu"))
model.add(Dense(units = 128,kernel_initializer = "random_uniform",activation = "relu"))

Adding Output Layer:

model.add(Dense(units = 6,kernel_initializer = "random_uniform",activation = "softmax"))
model.summary()
Model: "sequential"
_________________________________________________________________
 Layer (type)                Output Shape              Param #   
=================================================================
 conv2d (Conv2D)             (None, 62, 62, 32)        896       
                                                                 
 max_pooling2d (MaxPooling2D  (None, 31, 31, 32)       0         
 )                                                               
                                                                 
 conv2d_1 (Conv2D)           (None, 29, 29, 32)        9248      
                                                                 
 max_pooling2d_1 (MaxPooling  (None, 14, 14, 32)       0         
 2D) 
   
 )                                                               
                                                                 
 conv2d_1 (Conv2D)           (None, 29, 29, 32)        9248      
                                                                 
 max_pooling2d_1 (MaxPooling  (None, 14, 14, 32)       0         
 2D)     
 flatten (Flatten)           (None, 6272)              0         
                                                                 
 dense (Dense)               (None, 128)               802944    
                                                                 
 dense_1 (Dense)             (None, 128)               16512     
                                                                 
 dense_2 (Dense)             (None, 128)               16512     
                                                                 
 dense_3 (Dense)             (None, 128)               16512     
                                                                 
 dense_4 (Dense)             (None, 128)               16512     
                                                                 
 dense_5 (Dense)             (None, 6)                 774       
                                                                 
=================================================================
Total params: 879,910
Trainable params: 879,910
Non-trainable params: 0
_________________________________________________________________
model.compile(optimizer='adam',loss='categorical_crossentropy',metrics=['accuracy']) 

Train the model:

model.fit_generator(generator=x_train,steps_per_epoch = len(x_train), epochs=9, validation_data=x_test,validation_steps = len(x_test))
…
